model_cnn (1).pth (torch, 435171 bytes, 8 tensors)

conv1.weight f4 [6, 3, 5, 5]
00000000: b930 57bd 8606 01be 0328 fd3d c7cc 7fbd
00000010: 8779 82bd d7a8 1dbd 078e 2fbc 3620 103e
00000020: 2fbc c33c 3775 37be b2d8 debd f37a 3bbe
00000030: 14a5 823e 5b55 e9bc be96 49bd c225 9dbb
00000040: 22f1 e6bd f237 653e f098 34bd 6e91 98bd
00000050: f829 153b 02b2 8f3c b8f1 973c 0445 0ebd
00000060: 5349 8e3d d4c3 a13b d104 153e dd6c 2d3d
00000070: 59fd 3e3e 28d4 d9bc adc3 5c3d 6d99 6ebd
00000080: 4c98 7a3e 4b57 2b3e a1af b83c f9bd 673d
00000090: fb27 6ebd f6dc 5a3e 5ca2 643d 812b edbd
000000a0: 2bd0 27bc 13e2 2d3d ff53 073e c588 91bd
000000b0: 0db2 b73d 0bd0 bebc 1e71 aebb cd3c 783e
000000c0: f36a b6bd 1342 563e 7f91 b7bd b435 b33c
000000d0: 33c8 2a3d 89b5 99bd 777b 66bd 7c79 6dbd
000000e0: 0652 26be 4b81 133e 9db3 7fbd fbe7 c8bd
000000f0: d865 e4bd b317 3cbe e8b5 103e 5606 993c
00000100: 60f0 13be 8de4 9ebd 5b62 ecbd 58fd ac3d
00000110: d424 6ebd d2fd 25bd a576 d0bd 3d61 4bbc
00000120: 67d6 453d 7cce 4cbe 3aef a6bd dd8c c53b
00000130: edd0 6f3b 93a2 263c 365e cebd 3399 48be
00000140: da15 24bd 11ee e6bd 9452 1fbe fc2f 9bbd
00000150: bb14 d2bd 2d19 d93c 5a2a a63c b0c8 85bd
00000160: 140e 803d 2b15 653c f597 273d 26ca 12bd
00000170: e5ae 8dbd e706 14bd 8e81 f83c 16b9 8b3d
00000180: f0ae f3bc 337b 053c d69f 88bc 9598 9d3d
00000190: 7ed6 a53d 2d3c b3bd af31 ac3d 2815 003d
000001a0: 6fd2 213c 11e8 a2bd e76a d3bc 2732 983d
000001b0: c2f2 203e e2be 913d 173a c2bc 3dbc 283d
000001c0: 6d19 8d3d 5a1c 65bc ae21 483d b225 ffbd
000001d0: 0b74 503c 2404 313c 5774 cf3d 46ec cebc
000001e0: b484 fcbd 72a4 fbbc 531a 7c3c 685d 47bd
000001f0: 296e 83bd b40e ad3d f8cd 02bd 4ee0 d43d
00000200: 5018 6dbd 04ad 2bbe 7180 93bd e587 ba3d
00000210: b536 793e b53a 643e 35cd cf3c 81e9 75bd
00000220: d06b 263e 8893 1a3e 2a28 673e dd99 413e
00000230: b553 9f3d f184 893d bc16 203e 5404 d73d
00000240: 1051 523c 18ac 94bc 9b32 fd3d 94bc a73d
00000250: 5ccd 8b3d e711 823d 107b 04bc 9547 b7bc
00000260: 577b 573d 6e32 05bd 6927 0cbc ae88 393e
00000270: 4446 413e 5a81 b63d 2e6b 9fbc 3d2e 313d
00000280: 25e2 593e ac37 993d c4cd 183e 2734 6a3e
00000290: 9a21 4e3d 2df2 613d 6d05 c03d 9a99 6f3e
000002a0: 9979 d83d 5e8b 083e 019f 9a3d 19d1 533d
000002b0: 29bb 2f3e 9a46 363d 4551 cf3d f2ee e83d
000002c0: a0c7 a43c be09 0cbe 7627 05be b363 e8bd
000002d0: 71e7 0cbe 0abe 7cbc d07d ec3c cab8 883d
000002e0: 2ffa edbd e9b8 adbd 89db 893d a170 aa3d
000002f0: a48d 34bd e475 f1bb 56da 00be 4d94 9abc
00000300: 1a3e 0fbe 7c5e 013d 7783 4c3d fb6d adbd
00000310: d6c3 b3bc f16d dfbd dc0e aebd e799 c5bd
00000320: 7d4b 083d 425b 8e3c cf42 153c b45a 50bd
00000330: a77b 09bd ea4a 973d 5398 ed3c 2833 103d
00000340: 3b6c 03bd c643 11be a441 9dbd f507 e7bd
00000350: 8ab8 d2bd 11b0 75bd 2316 80bd dc8d 303d
00000360: fcfb b6bd 2502 e8bd 6ff4 343c 032b 1cbe
00000370: ac29 3cbd bc7b c7bd 5fc6 f9bd d62e 553d
00000380: 46ce bd3d 8c67 0c3d 23c4 4ebd 55d4 673d
00000390: 148c 40be 827f a03c 7437 31bd d8a2 523e
000003a0: 2c71 b6bd f5fe 69be b480 8f3c c39a 993c
000003b0: c82e 583c 47d1 81be 7198 933a cc58 0f3e
000003c0: 9dd0 6a3d 0d24 17be c525 58bc f8e4 4d3e
000003d0: ab3a 803e e51b 3cbe d59c e3bc a9d7 8a3e
000003e0: b5d4 b23d afc3 4d3d 7e1f cabd f1db 07bb
000003f0: 3223 9e3d c517 44bd f92a 9bbd a2cd 93b9
-0.0525367 -0.12600145 0.12361147 -0.06245115 -0.06370836 -0.038491096 -0.010715014 0.14074787
0.023893444 -0.17915808 -0.10881175 -0.1830862 0.2551657 -0.028483083 -0.049216025 -0.004795761
-0.11276461 0.22384623 -0.044091165 -0.074496135 0.002276061 0.017540935 0.018547878 -0.034733787
0.06947579 0.0049366746 0.14552619 0.04234015 0.18651332 -0.026590422 0.05389755 -0.058251787
0.24472159 0.16732518 0.022544684 0.056577656 -0.058143597 0.21373352 0.0558189 -0.11580563
-0.010242502 0.04245193 0.13215636 -0.07106165 0.08969507 -0.023292562 -0.005323543 0.24241944
-0.08907118 0.20923643 -0.08963298 0.021876194 0.04169483 -0.07505328 -0.05627009 -0.057977185
-0.16242227 0.1440479 -0.062427152 -0.09809872 -0.11152238 -0.18368416 0.14131892 0.018679779
-0.14447165 -0.07758436 -0.11542197 0.08446759 -0.05814059 -0.040525265 -0.1017888 -0.01241332
0.048300173 -0.20000643 -0.081510976 0.006028755 0.0036593035 0.010170597 -0.10076563 -0.19589691
-0.0400599 -0.11275876 -0.15558845 -0.07577512 -0.1025786 0.026501263 0.020283867 -0.06532419
0.06252685 0.013982098 0.040916402 -0.035837315 -0.06918124 -0.036139395 0.030335214 0.06822412
-0.029746503 0.008147049 -0.016677778 0.07695118 0.08097552 -0.08751712 0.08407914 0.031270176
0.009876831 -0.079544194 -0.025807811 0.07431441 0.15717605 0.07116486 -0.02370934 0.041195143
0.06889615 -0.01398381 0.048860244 -0.12458362 0.012722979 0.01080421 0.10129612 -0.025259148
-0.123299986 -0.030718062 0.015387136 -0.048673064 -0.06417496 0.0845007 -0.03193471 0.10394345
-0.057884514 -0.16765219 -0.07202233 0.09107951 0.24337275 0.2228802 0.025366405 -0.06003714
0.16252065 0.15095341 0.22573915 0.1890635 0.07779638 0.0671481 0.15633672 0.104988724
0.01283671 -0.018148467 0.12363168 0.08190265 0.068262786 0.06351071 -0.008085981 -0.022373
0.05260786 -0.032518797 -0.008554318 0.18118545 0.1887446 0.089113906 -0.019460287 0.043256987
0.21277674 0.07481322 0.14922243 0.22871457 0.050325014 0.055162597 0.09376035 0.23398438
0.10570068 0.13334414 0.07549859 0.051713083 0.1716124 0.044500925 0.10122923 0.113737
0.02011472 -0.13675591 -0.13003334 -0.11347141 -0.13760163 -0.015426168 0.028868586 0.06675871
-0.11619984 -0.084825344 0.06731326 0.083222635 -0.04408039 -0.00736879 -0.12583289 -0.018869543
-0.13988534 0.031584248 0.049930062 -0.08468243 -0.021943968 -0.109096415 -0.08498928 -0.09648495
0.033275116 0.0173775 0.009110167 -0.05086775 -0.03356519 0.073873356 0.029003298 0.035205036
-0.03208564 -0.1418601 -0.076785356 -0.112808146 -0.10289104 -0.059982363 -0.06254222 0.043104038
-0.08934781 -0.11328534 0.011044606 -0.15250783 -0.04593818 -0.09740397 -0.121960394 0.05204662
0.09267859 0.034278437 -0.05048002 0.05659898 -0.18803436 0.01959205 -0.043265775 0.20569932
-0.089083046 -0.22851165 0.017517425 0.018750554 0.013194747 -0.25354978 0.0011260641 0.13998717
0.057327855 -0.14759846 -0.013192599 0.20106876 0.2504476 -0.18370016 -0.027784744 0.2711766
0.08731977 0.050235447 -0.09869288 -0.002073046 0.07721557 -0.04787423 -0.07576556 -0.00028191233

conv1.bias f4 [6]
00000000: 92e2 b33c ded1 cdbd eab7 5fbd 8d38 f03c
00000010: 9920 3b3e 249e 08bc
0.021958623 -0.100497946 -0.054618753 0.02932384 0.18274154 -0.008338485

conv2.weight f4 [16, 6, 5, 5]
00000000: 4a3e e43d d117 3b3d 3e27 933d faff 8e3c
00000010: 074a 84bd 53a8 5b3d e5fa 433b 8e9c 87bd
00000020: a50c f8bd 77ba 60be b630 153e ed0b e93d
00000030: f230 1e3d 6947 e3bd 1697 14be 6d58 d93d
00000040: 6107 003e 9d8b bc3c 848b 36be de03 5abe
00000050: 8b7f a93d 1579 5d3e 72e0 b83d 4e7e 16be
00000060: 4f5b 8cbe 06b3 ad3d 5621 ef3c a813 db3c
00000070: bd19 fc3d 1f20 4f3d 13bf 4e3d 42db d1bc
00000080: 6bb0 673c 716f b13d fc2e 553c c94d 74bd
00000090: c3a5 8fbc aa4c 293d 14d4 a93d b784 cfbc
000000a0: bf6f 10be 6719 f03b 33a9 cf3c b4b8 eebb
000000b0: 8b2c b6bc 73b9 79bd b111 493d c395 b23d
000000c0: 2271 083e e5ea 923d 52c4 353e 02cd 0f3e
000000d0: 330e 833d f045 fa3d afec 313d 4495 9f3d
000000e0: 914f 333e b4eb 2e3a ac1f 17bd 8d20 a8bc
000000f0: fd71 883d 016e 293d 52c8 173d b62e ccbd
00000100: fe92 e4bc e925 b43d 7e37 013e 9297 ab3d
00000110: fc59 cebd 7782 04be 5a1e 373e 4214 a83d
00000120: 65c7 0c3d e405 abbd 6f36 35be a967 0bbe
00000130: 1ff2 10be fd5d 7bbd 35a5 aebd f55e 9fbe
00000140: 9be0 52bd ceea e9bd 2288 71bd 4782 5cbe
00000150: c159 99be 7e87 4fbd dc84 e7bd 833e 05be
00000160: d6c3 c2be 0d76 70be dc79 4b3d e56a 6abc
00000170: 9340 08be 9c25 5bbe aef2 393d 7dc5 c23d
00000180: cda0 183e af3a b13d 2000 f43c 9dac 283e
00000190: f891 eebb 1aa4 5b3d a5c3 e53d 1697 273d
000001a0: 2206 683e 8026 e4bc c5ef 9dbc 5751 d63c
000001b0: ece7 d93d 9cd2 423e 241a e3bd 4e4c bbbd
000001c0: f8bc 123c f7ee cd3d 1ffa 163d 050a d5bd
000001d0: 31fa 81bd b03c 2c3e 4360 3d3d fa60 90bc
000001e0: 2eb6 9ebd a6ca 083d faee 233d b282 a13d
000001f0: c120 893d 993a 87be 45f2 43be 55cf 40be
00000200: 6d3d 4ebe 1b57 bebd 83dc e9be 96ea 26bf
00000210: 1280 0cbf 64b2 98be 3257 3ebd f8bf f5be
00000220: aef8 77bf ad2b 2bbf fecb 03be 0448 e5bc
00000230: 2ea8 c3be c9ed 16bf bbe7 9abe 3d9f cfbd
00000240: 7f6e 18bb 5202 7fbe f3a3 b3bd 19c4 afbb
00000250: b1d0 523d 2b11 0a3e 839c d63d ce33 e73d
00000260: f3eb d5bd c14c b0bc d9af 0fbe 816d 95bd
00000270: d7ec 52be 81d1 b8be fa98 dcbe 58bf 96be
00000280: 945b c3bd 20db 14be 1e8e f8be 4a61 31bf
00000290: 4f70 95be f901 a439 a154 04be 1ae2 9bbe
000002a0: 956b f1be 3878 9bbe d045 193e 4e68 903e
000002b0: 401c 593e 3989 ba3b d6af a7bd 059e 87bc
000002c0: b609 80bc ce2a d33c 1615 4abb 0712 e3bd
000002d0: 7b8e 21bd de82 f7b9 388a 98bd 448d 803c
000002e0: aaaf 34bd 2dda 193d 00a6 1dbc b15a ab3d
000002f0: b3b9 12bd 389d afbd 058a 75bd 187f 233d
00000300: f689 a83c 689a 003e a4da 023e ff7d 0c3d
00000310: 440c 0d3b 8259 0e3e e410 683e 79d2 f73d
00000320: 2548 093e f497 863d c3ba ff3c f7af 08bd
00000330: 4b00 aabd e193 f43c bab9 41be 71e8 32be
00000340: c76f 25be 8309 97be 1758 49bb 04b0 6abe
00000350: 3bd9 dfbe 5bb1 99be 0537 b3be a2bc 313e
00000360: 2e40 03bc 1e79 2dbe 72d8 a7be 2bf7 66be
00000370: 3440 e73e 5828 1c3e a4fa c43d 90f0 0e3d
00000380: c881 a8bd f4c1 0f3e 4856 0f3e ae6a cb3c
00000390: 284d 82bd 28a6 e1bd 7c00 1dbc cf31 f9bc
000003a0: 7cc4 5bbe 5af5 96be c7a1 c2be 9ed7 af3d
000003b0: 0b9f 88bd 4913 70be 80d4 9dbe 6bca bebe
000003c0: 1c1c 623e 7ec4 da3d e8ad 00be 91fa 31be
000003d0: 8537 afbd cfb7 3dbd 72df b63c 15a2 07bd
000003e0: 8677 d7bd 59ad 58be 0b8f 943d 4bbd e43c
000003f0: cb09 973d f5da 173d a4e9 203e 7343 cc3d
0.11144693 0.04567701 0.07185219 0.017456044 -0.06459432 0.053627323 0.0029904183 -0.06621657
-0.12111787 -0.2194613 0.14569363 0.11379228 0.038620897 -0.11097605 -0.1451076 0.10612569
0.12502815 0.023015792 -0.17826658 -0.21290538 0.0827628 0.2162822 0.090271845 -0.14696619
-0.27413413 0.08481412 0.0291907 0.026742771 0.12309597 0.050567742 0.05047519 -0.025617246
0.014141182 0.08663834 0.01301169 -0.059644494 -0.017535096 0.04133288 0.08292404 -0.025331838
-0.14105128 0.007327247 0.025349235 -0.007285202 -0.022238037 -0.060967874 0.049089137 0.08719971
0.13324407 0.07173709 0.17750672 0.14043048 0.06399193 0.12220371 0.04343861 0.07792142
0.17510821 0.0006672696 -0.03689544 -0.020523334 0.066623665 0.041364674 0.037056275 -0.09969847
-0.027902123 0.08796293 0.12618825 0.08378519 -0.10075757 -0.12940393 0.17882672 0.08206989
0.034369845 -0.08350733 -0.17696546 -0.13613762 -0.14154862 -0.06136893 -0.085276045 -0.31127134
-0.05148373 -0.114217386 -0.058967717 -0.21534072 -0.2995129 -0.050666325 -0.11304638 -0.13012128
-0.38040036 -0.23482533 0.04967676 -0.014307712 -0.13305883 -0.21401066 0.045397453 0.09510324
0.1490509 0.08653771 0.029785216 0.16472097 -0.0072805844 0.053623296 0.11218957 0.04091557
0.2265859 -0.02785039 -0.01927937 0.026161833 0.10639939 0.19025654 -0.1108897 -0.09145413
0.0089561865 0.100553446 0.036859628 -0.10402302 -0.06346548 0.16820025 0.04623438 -0.017624367
-0.07749592 0.033396386 0.040022828 0.07886256 0.066957004 -0.26411894 -0.19135387 -0.18829091
-0.2014062 -0.09293958 -0.4567605 -0.652017 -0.5488292 -0.298236 -0.046469875 -0.47998023
-0.9686383 -0.6686352 -0.12870786 -0.027988441 -0.38214248 -0.5895658 -0.3025492 -0.10137794
-0.002325922 -0.24903229 -0.08771505 -0.005363953 0.051468555 0.13483112 0.10479071 0.11289178
-0.10445394 -0.021520974 -0.14031924 -0.07296277 -0.2059816 -0.3609734 -0.43085462 -0.2944286
-0.095389515 -0.14536715 -0.48545927 -0.69289076 -0.29187247 0.00031281987 -0.12922908 -0.3044594
-0.4715239 -0.30365157 0.14968038 0.28204578 0.21202183 0.0056926277 -0.08187835 -0.016554842
-0.01562963 0.025777247 -0.0030835322 -0.11087423 -0.03944252 -0.00047209015 -0.07448238 0.01569236
-0.04411284 0.037561584 -0.009622097 0.083669074 -0.035821628 -0.08574909 -0.05994608 0.039916128
0.020573597 0.12558901 0.12778717 0.034299847 0.0021522203 0.13901332 0.22662693 0.12100691
0.13406427 0.065719515 0.031216985 -0.03337094 -0.08300837 0.02985567 -0.18918505 -0.17471482
-0.16155921 -0.29499444 -0.0030722672 -0.22918707 -0.4372042 -0.30018124 -0.35002914 0.17357114
-0.008010907 -0.16940734 -0.32782322 -0.22555225 0.4516617 0.15249765 0.096181184 0.034897387
-0.08227879 0.14038831 0.13997757 0.024831142 -0.06362373 -0.1101802 -0.009582635 -0.030419258
-0.21461672 -0.29484063 -0.3801405 0.085860476 -0.0667096 -0.23444857 -0.30826187 -0.37263808
0.22081035 0.10682009 -0.1256634 -0.1738074 -0.085555114 -0.04631787 0.022323344 -0.033113558
-0.10520844 -0.21159877 0.07253846 0.027922293 0.07374915 0.037074048 0.15714127 0.099738024

conv2.bias f4 [16]
00000000: de63 f6bc 84aa 8d3d 3f13 d73d e948 8c3c
00000010: aa88 8d3c 4b34 76bc 00c1 62be 259d 07be
00000020: b407 7abe 6b90 0b3f acbf 77be b575 f7bc
00000030: 6f17 f03c 8639 933e 06d8 203e ef87 593e
-0.030076917 0.06917289 0.10501718 0.01712461 0.01727708 -0.015027116 -0.22143936 -0.1324354
-0.24417001 0.5451724 -0.24194211 -0.030207494 0.029308049 0.28754824 0.15707406 0.21243261

fc1.weight f4 [256, 400]
00000000: a1dc 00ba 01c1 99be a4c4 bebe 5bfb aabe
00000010: 2598 afbe 0752 f2bd d0b7 44be 3db5 81be
00000020: ee23 1dbe a8b2 09be 0a83 bbbd 3947 d3bd
00000030: 08a1 333c fa24 703d e2a0 3ebd 164c 3ebe
00000040: 6d08 22be 56b9 883c 6307 adbb ee5d 67be
00000050: c3b2 05be 0229 f5bd 2c96 d7bd 7629 9ebd
00000060: 0d76 3abe 5308 dabd fa25 203e 357b a43d
00000070: 21ac a33d 3d4f e0bd 10f5 223e f9be 383e
00000080: e640 543e dfd1 fa3d 1ca5 523c dc1a 493e
00000090: 95dd 143e d28c 5e3e 4a1a 553e 4982 9a3c
000000a0: a26e fd3d 7dbb a53b 83d9 243a cb92 ee3c
000000b0: 02c1 1fbe b15e f1bc d440 bebd 3f66 93be
000000c0: 4bf1 f2bd b53e 87be 354c 31bd be0d 523d
000000d0: 31ec f1bc 4f88 113d 4214 f7bd 7b46 b53c
000000e0: 0747 6e3d da4f a83d 6075 0bbc be46 bfbc
000000f0: 5226 ca3d 9611 c83d 5be9 84bd 131f 5d3c
00000100: 1196 203c 9f7b f83d d135 40bd c766 59be
00000110: 2e55 ccbd 1cdd d83b ba12 3abd 87d5 98bc
00000120: acce 8cbe 4779 2bbe ff84 963d 6b94 0a3e
00000130: f588 373e e958 a93d 9fc6 37bb 5e7f d8bd
00000140: 8ffc 423d 6c11 113e d35b c7bd d992 3dbe
00000150: 5605 4cbe 2dd7 5cbd 5c55 5e3d f9ed 9a3e
00000160: 1605 2abd c735 04be 8a9a c6bd 04b6 543e
00000170: 28e1 4d3e 6fed 143d 7e4d 1b3d 76e2 39be
00000180: cd63 503c 1a7b 21be 6e5b 23be 4dc4 edbd
00000190: 4533 803c dcc8 8d3d 7a24 04bc 2064 d83b
000001a0: 1b9b 84bc 0644 d0bd 6a37 38be ff8d 3cbe
000001b0: c0cf ed3a 3df2 0ebd aa8b 2ebe 8377 8dbd
000001c0: 3367 e43d 1a2e d8bd a16d 44be be55 d6bd
000001d0: 7ee8 bb3d f688 a73e 1f7e 1d3e b493 c9bd
000001e0: 8a9c 7ebe 6db6 6ebd 4b92 c03d bc1c ef3d
000001f0: 77e3 4cbe 5648 ec3d 01c7 1a3d 4b1c 853b
00000200: c18d 363d f23f 80bd 14db f03d 7903 e7bc
00000210: 8d2f 8bbd 3fa1 adbb c452 a3bd e5d3 debc
00000220: 11bf c0bc bed2 103d 1ff6 4d3e df6b c1bd
00000230: b01d 9a3d 7415 cfbb bfb0 a23c 8655 f83d
00000240: 921a 61bd f13e 6c3e 6a48 073e fca5 adbb
00000250: 5a0a 6bbd 3a7d 12be a960 7fbe 003c 49be
00000260: ccb1 f6bd 4ba2 ecbd 56bd e2bd 409b f7bd
00000270: 04dc 45be acaa 5fbe 73ba e3bd 28e2 c5bd
00000280: f65f 903d e7a9 4b3e f8bc a63e 8af7 0bbb
00000290: de02 42be d7e3 7ebe fa79 cfbe b5f1 afbe
000002a0: a043 05be 43a6 e8bd 837f 6f3c 7300 19be
000002b0: 1c3d 60be 5407 bcbd 608f 863c 4e1d 66be
000002c0: d33a 07be 5d4a 1cbe ce11 98be ef7c 89be
000002d0: 168b 2d3d c63f c93d 1239 483d b5c1 093c
000002e0: 38f1 b2bd aac8 033c cc3b 933c b4a0 3b3d
000002f0: 03c2 8b3c 91f1 813c 315c 733d ffd5 1dbd
00000300: 93a1 d6bd 1a0a b73c 8faf ee3d 8b88 0a3e
00000310: a500 133d 613b 17be 65aa 3a3d 9885 a73c
00000320: 1654 073d 3cd6 ecbd 34d2 3fbd 60a8 393c
00000330: da5d 4b3d e3d2 543d f5ae cebd 6874 323c
00000340: 566c 10be 95b4 dcbd 58cb 1ebe 591a dc3b
00000350: 2aa4 8dbd 3eee a2bd c44e 6a3d b475 85bd
00000360: 0636 083d 57b5 463c 3e94 15bc 069d a2bd
00000370: 64fc 33bc 22cc 873d 30fd 503d 1b62 42bd
00000380: 4b16 afbc e3fe 39bb 67f1 d6bd 4371 3dbd
00000390: 1c0a b0bd e058 69be 8857 483d 88de c23d
000003a0: a897 dc3d 644e f0bc 2374 123d 8261 bb3c
000003b0: a3f3 583e 6c16 883d d259 a03c bcda 1b3d
000003c0: 8445 b4bc d742 0d3e 7e55 293c 735a 123c
000003d0: 8d09 b7bd cb4f 99bd 5347 41bd 3b3e 02bc
000003e0: ec5f d4bd 0cd7 bebd 724a d03d 813e 1c3e
000003f0: f23d 0b3e d33d 193e c449 c13d d383 013d
-0.0004915689 -0.30030063 -0.372594 -0.33394894 -0.34295765 -0.11832052 -0.19210744 -0.25333586
-0.15345737 -0.13447058 -0.09155853 -0.10316319 0.010963686 0.058629014 -0.04654015 -0.18583712
-0.15823527 0.016689938 -0.0052804216 -0.22594425 -0.13056473 -0.11970712 -0.1052669 -0.07722752
-0.18209095 -0.10646119 0.15639487 0.080313124 0.07991815 -0.109526135 0.15913796 0.180416
0.20727882 0.12247061 0.012856748 0.19639152 0.14537652 0.21733406 0.2081081 0.018860953
0.12374617 0.0050577507 0.0006288515 0.02912273 -0.1560097 -0.029464098 -0.09289709 -0.28788945
-0.11862429 -0.2641503 -0.043285567 0.051282637 -0.02953157 0.035530385 -0.12064411 0.022128334
0.058173206 0.082183555 -0.008511871 -0.023349162 0.0987059 0.09768979 -0.064898215 0.013496178
0.009801404 0.12132954 -0.046926323 -0.21230613 -0.09977184 0.006618155 -0.045428015 -0.018656505
-0.27501428 -0.16745482 0.07349586 0.1353318 0.17923339 0.082689114 -0.0028041971 -0.10571168
0.04760414 0.14166802 -0.09734311 -0.18513049 -0.1992391 -0.053916145 0.054280624 0.30259684
-0.041508757 -0.1291114 -0.09697445 0.20772558 0.20105422 0.036359247 0.0379157 -0.18152794
0.012719107 -0.15769616 -0.15952846 -0.11609707 0.015649447 0.069230765 -0.008065337 0.0066037327
-0.016187241 -0.101692244 -0.17989889 -0.18413542 0.0018143579 -0.034898985 -0.17045465 -0.06907561
0.11152496 -0.10555668 -0.19182445 -0.10465573 0.09175204 0.3272168 0.15380143 -0.09842625
-0.24864402 -0.058279444 0.09402903 0.116754025 -0.20008646 0.115372345 0.03778744 0.0040622107
0.04456878 -0.062621966 0.11760536 -0.028199898 -0.06796179 -0.005298763 -0.07974771 -0.027200649
-0.023528608 0.03535723 0.20113419 -0.09444403 0.07525194 -0.006319696 0.01985967 0.12125687
-0.05495698 0.23070885 0.13211218 -0.005299328 -0.05738292 -0.14305583 -0.24939217 -0.19651794
-0.12045631 -0.115543924 -0.11071269 -0.120901585 -0.1932221 -0.2184245 -0.11119547 -0.096622765
0.07049553 0.19889031 0.32566047 -0.0021357262 -0.18946406 -0.24891602 -0.40522748 -0.34364095
-0.13014078 -0.11359837 0.0146178035 -0.14941578 -0.21898311 -0.09181085 0.016425788 -0.22472116
-0.13206033 -0.15262742 -0.29701084 -0.2685313 0.04236897 0.09826617 0.04888255 0.008408
-0.08737415 0.0080434475 0.01797285 0.045807555 0.017060285 0.015862258 0.059414092 -0.03853416
-0.104800366 0.022343684 0.11654579 0.1352865 0.035889287 -0.14768745 0.045572657 0.020449445
0.033039175 -0.115642995 -0.046831325 0.011331648 0.04965005 0.05195893 -0.10091964 0.010892011
-0.14103827 -0.10776631 -0.15507257 0.006717008 -0.069160774 -0.07955597 0.057204023 -0.06516591
0.033254646 0.012128196 -0.009129582 -0.07940106 -0.010985468 0.06630732 0.05102271 -0.047456842
-0.021372935 -0.0028380684 -0.104952626 -0.046250593 -0.08595678 -0.2278781 0.0489116 0.09515101
0.10771114 -0.029334255 0.035755288 0.022873644 0.2118669 0.06644902 0.01957408 0.0380504
-0.022005804 0.13795029 0.010335324 0.008932698 -0.089373685 -0.074859224 -0.04718716 -0.007949407
-0.10369858 -0.09318361 0.10170449 0.15258218 0.13597849 0.1496499 0.09437898 0.031619858

fc1.bias f4 [256]
00000000: 5270 443e 72db 62bd fde3 043e a005 bc3e
00000010: c843 013d 0e52 c0bc 5194 4a3e ca26 97bd
00000020: 1a7f 313e d8da 803e 3062 ae3e dd6c 2fbd
00000030: f5bf 89bd babd 00be b99d 6d3e df0f dd3c
00000040: ed51 9c3e 51c9 25bd 910e 1e3e 89a3 c8be
00000050: 2c7d ec3d 0a8f 24bd b2f3 49be e864 a9bd
00000060: 58e9 783d 1ca6 883d ba41 25bd bdf2 0b3e
00000070: ce9b 733a 2a65 3abc 06e8 113f 13e4 443e
00000080: 6a5c 6c3d e342 033f 2032 9ebd 48b2 59bc
00000090: 08b1 f33d 2a50 893e fda4 f93b c2e0 c13b
000000a0: dc6f 3b3e e0dc 883e 7d2a 4c3e 597a d83d
000000b0: 9400 55bc 6cfb a7bd ccf2 2b3d 569e a73b
000000c0: 62a0 583c 4692 9c3b c919 49bd e15f 7b3e
000000d0: d27c 233e 7541 d33d a96e a73d e9ef 2cbd
000000e0: 4d4a 833e 90fc a13e 447f 99bc c108 0bbe
000000f0: 7648 a43d d5db 81be f329 0ebd 260e de3e
00000100: a958 77bd d0c8 c23d c533 4bbe 9551 863e
00000110: 8009 7f3e 03e1 babd eb9c ed3d 3485 75bb
00000120: 0ce5 a2bd 0cc5 2f3c 63d1 a03e dfad 3d3e
00000130: a436 f23d c18b c73e f7d6 623e 42f1 a6bd
00000140: 09cd 10be 486a bf3e 26e0 973d b38f 123e
00000150: 65c1 1c3e 7287 7eb9 02ca ef3d 1fb7 7a3e
00000160: 4fd2 f6bc 70c8 c63e 2db7 993d c8e5 c8ba
00000170: 1c81 b43e 91c0 f6bc 1ff8 3dbd 77c9 b03e
00000180: 468e 483e 71c5 a33e 2ae2 d1bc bb02 253e
00000190: d01b a73e 7455 68bd 4388 c3bd 398f 13bd
000001a0: 16e2 843e 59d8 a33e a880 83bc 5aa2 4fbe
000001b0: 7919 7abe 4b01 c13c 8b2f 30bd 5a5a dabd
000001c0: 6000 5d3e b0c6 043c f08f 0dbd b9bf 0dbe
000001d0: 3df4 023f 7e89 56bd e544 26bd c17e c23d
000001e0: f035 713e 7afe 87bd 61cb c2bc aced 68bd
000001f0: 5a44 7c3d 5b51 00bd 1695 ca3d 8b62 3a3e
00000200: c83c d03e 18cb 7fbd d8c7 38bd 5b69 e3bc
00000210: 321d 75bc 601f e03c 6fff a3bc 7f33 123e
00000220: ebc9 0ebb 7084 7dba 3fd9 ad3e 6bc4 cd3c
00000230: 8935 e93e a7d1 883e 978c 213e 8865 d03b
00000240: e6d5 42be 6b35 2e3e a2a8 223d a2e0 e13c
00000250: c849 a0bd fe67 2ebe 950a c9bd 28c7 a43e
00000260: 464b 65be 6dcd 4d3e 2b1b 0b3e fb2d 193e
00000270: 8649 b93d d7e8 3b3c 3aec e33e 06f9 5ebd
00000280: da51 78bb c041 5f3e 26a5 39be 2611 ba3a
00000290: 2a03 80bd 1757 2a3d 4329 24be 657c a93e
000002a0: fd29 2f3d 3069 483e ba8a 903c e1b2 913e
000002b0: cd97 993c c176 003e 5022 f63d 6925 ab3e
000002c0: cce6 fc3e 19a2 cebc 16aa 943e 9d3b cd3e
000002d0: 4ba3 90bd 2644 c8bb 2d5f f03e a1c0 513c
000002e0: 194c e5bc 8b83 053e 4010 31be d3e1 2abd
000002f0: f8ed 92be 219c 61be 8aa0 293d 2085 603d
00000300: 2b6f cdbc a43c 053f e72b 3c3d 13b3 973e
00000310: 0945 80bd e2b8 88bd e8f0 c33d 53f7 88bb
00000320: 3fc3 99bd 95c7 17bd 7110 273e ca4e a1bd
00000330: dd68 4a3e 8c52 79be 8a7e 7f3e 6366 39bd
00000340: f821 c53b ff4f 593e c81a 213f 0cc7 9fbd
00000350: 4a47 a93c bc45 463e f36b 203e cb15 63bd
00000360: 427f 563d 0b73 c23e d985 20be 3d2d 0dbe
00000370: a002 033f 0188 c93a 0895 24bd d347 e43d
00000380: 00c6 ba3e abdd 533e 9a89 063e e46b 343e
00000390: 4b31 e5bd 89ec 423e ac81 db3e 6abc de3a
000003a0: 5bd2 f43b f9ff 883e 58b9 a13e 4aad 01bd
000003b0: e204 75bd d0e1 543e b2a9 38be 392b 03be
000003c0: 4973 c93e 5ee4 e53e f670 003e aa93 e83d
000003d0: 436f 81bd 92f6 163d c443 b6bd 4781 b5bd
000003e0: 5dee 823e 3743 f6bb 5f4c 063f ce37 4a3e
000003f0: c31f e1bc ddf5 59be e6aa 0cbe 0c14 53bd
0.19183472 -0.05538506 0.12977596 0.36723042 0.03155878 -0.023476627 0.1978314 -0.07380445
0.17333642 0.25166965 0.34059286 -0.04282843 -0.06726066 -0.12572375 0.23204698 0.026985107
0.30531254 -0.040475193 0.15435244 -0.39187267 0.11547312 -0.040175475 -0.19721869 -0.082711995
0.06076941 0.06672308 -0.040345885 0.13666816 0.0009292931 -0.011376658 0.56994665 0.19227628
0.05770532 0.51273936 -0.07724404 -0.0132871345 0.118990004 0.26818973 0.007618545 0.005916686
0.1830439 0.26731014 0.19938083 0.10570211 -0.013000626 -0.08202252 0.041979596 0.0051153107
0.013221832 0.0047781793 -0.049096856 0.24548294 0.15965584 0.10315219 0.081754036 -0.042220984
0.25642624 0.31638002 -0.018737443 -0.13577558 0.08021633 -0.2536303 -0.034707975 0.4337017
-0.060387287 0.09510958 -0.19843967 0.26234117 0.24905968 -0.09124949 0.11602195 -0.0037463428
-0.079538435 0.010728132 0.3140975 0.18523358 0.11826828 0.3897381 0.22152315 -0.08151485
-0.14140715 0.37385774 0.074158 0.1431263 0.15308149 -0.00024273785 0.11708452 0.24483918
-0.03012958 0.38824797 0.07505641 -0.0015327269 0.35254753 -0.03012112 -0.046379205 0.34528705
0.19585523 0.31986573 -0.025620539 0.16114323 0.32638407 -0.05672212 -0.09547474 -0.03602526
0.2595374 0.32000998 -0.016052559 -0.20276776 -0.2442378 0.023560187 -0.04301409 -0.106617644
0.21582174 0.008104011 -0.034561098 -0.13842668 0.5115393 -0.052377217 -0.040593047 0.09496833
0.23555732 -0.066403344 -0.02377862 -0.056867287 0.061588623 -0.031327587 0.09891717 0.18201654
0.40671372 -0.062449545 -0.04511246 -0.027760198 -0.014960574 0.02735871 -0.020019261 0.14277457
-0.0021787833 -0.0009670919 0.33954808 0.025118073 0.45548657 0.26722452 0.15776287 0.0063597597
-0.19026908 0.17012565 0.039711602 0.027572934 -0.07826573 -0.17031857 -0.098164715 0.32183194
-0.22391996 0.20097895 0.13584583 0.14958946 0.090472266 0.011469088 0.44516164 -0.054436706
-0.0037890584 0.21802425 -0.18129405 0.0014195784 -0.062506035 0.04158696 -0.16031365 0.33102718
0.042764653 0.19571376 0.017644275 0.28456786 0.018749142 0.12545301 0.12018263 0.3342698
0.49394834 -0.025223779 0.29036015 0.40084544 -0.07062396 -0.0061116396 0.46947613 0.012802274
-0.027990388 0.13038461 -0.17291355 -0.04171927 -0.2869718 -0.22032215 0.041412868 0.054814458
-0.025077423 0.52045655 0.045940306 0.2962881 -0.062631674 -0.066758886 0.095674336 -0.004179874
-0.07507943 -0.03705557 0.16314866 -0.07876356 0.19766565 -0.24347895 0.24950615 -0.04526366
0.0060160123 0.21221922 0.6293149 -0.07801637 0.020663876 0.19362539 0.1566618 -0.055440705
0.052367456 0.37978396 -0.15676059 -0.13786788 0.5117588 0.0015375615 -0.04018119 0.11146512
0.36479187 0.20690028 0.13138428 0.17619282 -0.111910425 0.19035544 0.4287237 0.0016993408
0.0074713654 0.26757792 0.3158672 -0.031659402 -0.05981911 0.20789266 -0.18033484 -0.12809457
0.39345768 0.44900793 0.12543091 0.1135629 -0.063200496 0.03685624 -0.08899644 -0.08862548
0.25572482 -0.007515337 0.52460283 0.1974785 -0.027480965 -0.21285196 -0.13737068 -0.05153279

fc2.weight f4 [10, 256]
00000000: 2f02 24be f254 3abd caa8 2e3e bfc9 83be
00000010: becb bfba 0ba5 bf3c 9d22 c63d 30e2 a9bd
00000020: 5706 b7bc 8a23 a43c e9bb d3bd 30a3 fa3c
00000030: 813d 41bd 7a4e ffbd 9ff8 633e 70db a33d
00000040: c594 163e c6aa 873c 6736 7bbe 2369 e13c
00000050: c5dc 3e3d 89d3 483c 354e 763c c23c 463d
00000060: d000 0dbe ebc0 183d 6476 313d aa83 0d3e
00000070: 2ba9 3f3d c0e9 92bd 572e 093e 518b 07be
00000080: 8298 33bc ab36 f63d 135d b9bc d336 f23d
00000090: 7dc4 27be df30 b9be 6452 953c dd70 c5bc
000000a0: f923 1abe 69a5 27be 3c31 0cbe 4564 6ebe
000000b0: 1cd1 7f3d 8f88 963a 9deb 393d acfb 9abd
000000c0: 07ac 4a3d 2a9b 363d c8b3 0d3d d1c3 113c
000000d0: 939a 3abe 476e f0bd cb82 633d 9a1a fdbd
000000e0: 515e f3bd 60a5 bf3d bef4 b5bc c00b 773d
000000f0: 0fdb 86bd de9e a93d eb6b be3d 308a 013e
00000100: e9d0 e4bc 7f93 6ebb 59b1 533d b53a 783d
00000110: 29d3 9ebe 27a1 03bd 7940 04be bf38 53bd
00000120: 2828 b93d ceb0 7abe e9ea e83d 5e7e c13d
00000130: 5d45 3e3d 3210 edbd ef96 8f3d 307f bbbc
00000140: 3587 243d b5cf 46be 6189 de3d 5aec a73b
00000150: 5e60 71be c221 453d 62c8 a43d 9a66 bb3d
00000160: 2724 e0bc 64c8 64bd e98e ad3d d180 febd
00000170: aebe 4c3e e9ca 693c 3639 323c b9db edbd
00000180: f59d 40bc 8c63 efbd eb43 10be 01d3 d6bd
00000190: 6767 a13d fce1 1fbb 7880 10be 9baf dcbd
000001a0: 55e3 76bb ea65 bb3d 08dc 813c 9ae2 143e
000001b0: dfce 3c3e 1b4b bdbc 577a 963b 86a3 433e
000001c0: 54ae 0ebe 0e92 9abe 2f56 b83c 9e71 bd3d
000001d0: 7659 40bd 40fb 3f3d b1d0 3a3d fd3d 47be
000001e0: 4a94 df3d 9d00 83bd ee1e c93d 7346 e33d
000001f0: 8a58 aa3d 8810 afbc 8f68 3bbe 3c25 25be
00000200: ccad 32bd 5047 c3bc 7914 a23d 5ccf 9fbd
00000210: aee3 57bb 3291 d13d 3dbb 9d3c 70e5 a63d
00000220: 4fae 02bd b244 a53d 01fe 003e 3621 57be
00000230: fa5b 933c 25c2 c63d 5dbd f03c 610a 0e3d
00000240: 4a83 063d 1492 953d 5461 2b3c 968c 8b3d
00000250: 1e67 9ebd 9126 5f3c a70f 1b3d d0c7 893e
00000260: 77d3 e13b e097 b3be 0303 a53d 3d94 223c
00000270: 1c02 a13c 6352 b4bd 733a 38bd 6059 3b3d
00000280: a0d7 83bd 070d 3a3c 0b0d 0fbd 5dcd 543d
00000290: 0177 053c 7986 0c3d c34f ca3d 0c97 3dbc
000002a0: ed70 6b3e 59fe 99bd e087 e43b 4cac ccbd
000002b0: 5f60 66bc b962 0b3e dd4b 1dbe 2144 5f3d
000002c0: 3250 6ebe e96b 60bc d275 0b3d a78a 27be
000002d0: fd07 413c ab91 223d acd5 a4be 28ad e3bd
000002e0: 464f 983d 738f 923a 1934 df3d 33c0 103b
000002f0: db54 e53d 66f2 ca3a 1431 8d3d 8ccf 6f3d
00000300: b02f bfba 0f66 f1bd ba41 c23d bb3c 013e
00000310: bf1c 24be 434f a3bc 2a71 233e 4150 8b3c
00000320: d53e 943b 4c90 f6bc f6c1 d3bd f80f 6fbd
00000330: 0c38 bcbe 7bda c53b c5c1 e73c 0115 563d
00000340: 0d64 7abd 949c 5cbc ce19 97be 5015 393d
00000350: 9aae f63c f02c cdbd 2cc7 da3d 9e92 1dbd
00000360: 78e5 e03d 69aa c4bd 55d1 aa3c acf4 fa3c
00000370: 5797 5bbe 8d71 f63d 104f e43b 41a0 853d
00000380: f3b4 7ebe 3fdb 11be 8a63 45be 19ed 643d
00000390: 5ab1 64bd 21cc d53c 220d 99be 9167 3cbe
000003a0: 6f2c ea3c fe87 00be f4ae ff3d 2679 f83d
000003b0: b2e9 8cbd de20 9a3c d932 bf3d 0c87 143e
000003c0: 4614 59be 5c7a 263e a439 733d 90b8 d0bc
000003d0: 611e 033e 1445 eebd 0253 083c 6585 da3d
000003e0: 1890 b6be 4dce a9bd 3f4c afbe 81b2 e3bc
000003f0: 65ae 14bc 28e5 1e3e eddb 1ebc 3823 f93c
-0.16016458 -0.045491166 0.17056575 -0.25739858 -0.0014632863 0.023394128 0.09674571 -0.08295095
-0.02234189 0.020036478 -0.103385754 0.030595392 -0.047177795 -0.1246614 0.2226281 0.08000839
0.14705189 0.016560923 -0.24532472 0.027515953 0.04659726 0.012257465 0.015033294 0.048397787
-0.13769841 0.037293356 0.043325797 0.13819757 0.04679219 -0.071734905 0.13396583 -0.13236739
-0.010961654 0.12022146 -0.022627389 0.11826863 -0.16383548 -0.36170098 0.018227763 -0.024101669
-0.15052785 -0.16371693 -0.13690656 -0.23280437 0.06245528 0.001148479 0.045390714 -0.07567534
0.049480464 0.04458157 0.03459528 0.008896784 -0.18223028 -0.11739784 0.055544656 -0.123585895
-0.11883224 0.09357715 -0.022211429 0.06031394 -0.06584751 0.08282255 0.092979275 0.1265037
-0.027931647 -0.0036403832 0.051682804 0.060602862 -0.31020477 -0.03213611 -0.1291522 -0.05156779
0.09040862 -0.24481508 0.113729306 0.09447931 0.04645287 -0.11575355 0.0701121 -0.022887796
0.040168006 -0.19415171 0.10866047 0.005124611 -0.23571917 0.048127897 0.080460325 0.09150429
-0.027360989 -0.05585517 0.084745236 -0.124269135 0.19994614 0.014269569 0.010877898 -0.116141744
-0.01175641 -0.11688909 -0.14088409 -0.104894646 0.078810506 -0.0024396172 -0.14111507 -0.107756816
-0.0037672122 0.09150298 0.01585199 0.14539567 0.1843829 -0.023107102 0.0045922208 0.19105348
-0.13933688 -0.30189556 0.022502033 0.092501864 -0.046960317 0.04687047 0.04560918 -0.1945724
0.10916956 -0.06396601 0.098203525 0.110974215 0.08317669 -0.021370187 -0.18301605 -0.16127485
-0.043622777 -0.023837715 0.07914061 -0.078032225 -0.0032942104 0.10232772 0.019254321 0.081492305
-0.031904515 0.08069743 0.12596895 -0.21008763 0.017988194 0.09704999 0.02938717 0.034677867
0.03284005 0.07303253 0.010460217 0.06813924 -0.07734512 0.013620035 0.037856724 0.26910257
0.0068916637 -0.3507681 0.08057215 0.009923038 0.019654326 -0.088047765 -0.044977617 0.04573953
-0.064376116 0.011355645 -0.034924548 0.051953662 0.0081460485 0.03430793 0.098784946 -0.011571657
0.22992297 -0.07519216 0.0069742054 -0.099938005 -0.014061063 0.13611878 -0.15360971 0.054508332
-0.2327278 -0.013697603 0.03404791 -0.16361485 0.01178169 0.0396897 -0.3219427 -0.11117011
0.07436995 0.0011181667 0.10898609 0.0022087216 0.111978255 0.0015483617 0.068941265 0.05854754
-0.0014586356 -0.11787044 0.094851926 0.12620823 -0.16026591 -0.019935256 0.15961137 0.017006041
0.0045240917 -0.030098103 -0.103397295 -0.05836484 -0.3676151 0.006038008 0.028290639 0.052266125
-0.061130572 -0.0134650655 -0.29511875 0.04518634 0.030112553 -0.10018337 0.1068252 -0.038469903
0.10981268 -0.09602816 0.02085177 0.030634247 -0.2144445 0.12033377 0.006967433 0.06524707
-0.24873714 -0.14243792 -0.19276252 0.055890176 -0.055833198 0.026098313 -0.29892832 -0.18398882
0.02858564 -0.12551877 0.124845415 0.12132482 -0.06880511 0.0188145 0.0933587 0.14504641
-0.2119914 0.16257614 0.059381142 -0.025478631 0.12804557 -0.11634269 0.008320572 0.10669974
-0.3565681 -0.08291302 -0.3423786 -0.027795078 -0.009074782 0.15517104 -0.009695989 0.030412301

fc2.bias f4 [10]
00000000: 2bbd cebe 0f33 0fbe 7695 9dbe 2983 323e
00000010: f9d4 ba3e c335 8cbd e381 273d e671 8b3c
00000020: 858b 3c3c 2ae3 033e
-0.403787 -0.13984321 -0.30778092 0.17432846 0.3649061 -0.06846192 0.040895354 0.017022084
0.011507873 0.12879625
